…
Y6dMDSHDM/AAAAAAAAAAI/AAAAAAAAAOY/huplKdcVMXI/s64/photo.jpg","userId":"16055552733708038072"}},"colab":{"base_uri":"https://localhost:8080/","height":904}},"source":["model = models.vgg16(pretrained=True)\n","model"],"execution_count":16,"outputs":[{"output_type":"stream","text":["Downloading: \"https://download.pytorch.org/models/vgg16-397923af.pth\" to /root/.cache/torch/checkpoints/vgg16-397923af.pth\n","100%|██████████| 553433881/553433881 [00:16<00:00, 32968219.84it/s]\n"],"name":"stderr"},{"output_type":"execute_result","data":{"text/plain":["VGG(\n","  (features): Sequential(\n","    (0): Conv2d(3, 64, kernel_size=(3, 3), stride=(1, 1), padding=(1, 1))\n","    (1): ReLU(inplace)\n","    (2): Conv2d(64, 64, kernel_size=(3, 3), stride=(1, 1), padding=(1, 1))\n","    (3): ReLU(inplace)\n","    (4): MaxPool2d(kernel_size=2, stride=2, padding=0, dilation=1, ceil_mode=False)\n","    (5): Conv2d(64, 128, kernel_size=(3, 3), stride=(1, 1), padding=(1, 1))\n","    (6): ReLU(inplace)\n","    (7): Conv2d(128, 128, kernel_size=(3, 3), stride=(1, 1), padding=(1, 1))\n","    (8): ReLU(inplace)\n","    (9): MaxPool2d(kernel_size=2, stride=2, padding=0, dilation=1, ceil_mode=False)\n","    (10): Conv2d(128, 256, kernel_size=(3, 3), stride=(1, 1), padding=(1, 1))\n","    (11): ReLU(inplace)\n","    (12): Conv2d(256, 256, kernel_size=(3, 3), stride=(1, 1), padding=(1, 1))\n","    (13): ReLU(inplace)\n","    (14): Conv2d(256, 256, kernel_size=(3, 3), stride=(1, 1), padding=(1, 1))\n","    (15): ReLU(inplace)\n","    (16): MaxPool2d(kernel_size=2, stride=2, padding=0, dilation=1, ceil_mode=False)\n","    (17): Conv2d(256, 512, kernel_size=(3, 3), stride=(1, 1), padding=(1, 1))\n","    (18): ReLU(inplace)\n","    (19): Conv2d(512, 512, kernel_size=(3, 3), stride=(1, 1), padding=(1, 1))\n","    (20): ReLU(inplace)\n","    (21): Conv2d(512, 512, kernel_size=(3, 3), stride=(1, 1), padding=(1, 1))\n","    (22): ReLU(inplace)\n","    (23): MaxPool2d(kernel_size=2, stride=2, padding=0, dilation=1, ceil_mode=False)\n","    (24): Conv2d(512, 512, kernel_size=(3, 3), stride=(1, 1), padding=(1, 1))\n","    (25): ReLU(inplace)\n","    (26): Conv2d(512, 512, kernel_size=(3, 3), stride=(1, 1), padding=(1, 1))\n","    (27): ReLU(inplace)\n","    (28): Conv2d(512, 512, kernel_size=(3, 3), stride=(1, 1), padding=(1, 1))\n","    (29): ReLU(inplace)\n","    (30): MaxPool2d(kernel_size=2, stride=2, padding=0, dilation=1, ceil_mode=False)\n","  )\n","  (avgpool): AdaptiveAvgPool2d(output_size=(7, 7))\n","  (classifier): Sequential(\n","    (0): Linear(in_features=25088, out_features=4096, bias=True)\n","    (1): ReLU(inplace)\n","    (2): Dropout(p=0.5)\n","    (3): Linear(in_features=4096, out_features=4096, bias=True)\n","    (4): ReLU(inplace)\n","    (5): Dropout(p=0.5)\n","    (6): Linear(in_features=4096, out_features=1000, bias=True)\n","  )\n",")"]},"metadata":{"tags":[]},"execution_count":16}]},{"cell_type":"code","metadata":{"id":"AH_Ai4o9uIZU","colab_type":"code","colab":{}},"source":["for param in model.features.parameters():\n","  # model의 feature를 찾아내는 parameters들을 선택\n","  param.requires_grad = False\n","  # 이렇게 되면 features의 parameters는 전부 freeze."],"execution_count":0,"o
…
atus":"ok","timestamp":1557596527933,"user_tz":-540,"elapsed":468,"user":{"displayName":"공준택","photoUrl":"https://lh3.googleusercontent.com/-Y4Y6dMDSHDM/AAAAAAAAAAI/AAAAAAAAAOY/huplKdcVMXI/s64/photo.jpg","userId":"16055552733708038072"}},"colab":{"base_uri":"https://localhost:8080/","height":866}},"source":["import torch.nn as nn\n","\n","n_inputs = model.classifier[6].in_features\n","last_layer = nn.Linear(n_inputs, len(classes))\n","model.classifier[6]= last_layer\n","print(model)"],"execution_count":18,"outputs":[{"output_type":"stream","text":["VGG(\n","  (features): Sequential(\n","    (0): Conv2d(3, 64, kernel_size=(3, 3), stride=(1, 1), padding=(1, 1))\n","    (1): ReLU(inplace)\n","    (2): Conv2d(64, 64, kernel_size=(3, 3), stride=(1, 1), padding=(1, 1))\n","    (3): ReLU(inplace)\n","    (4): MaxPool2d(kernel_size=2, stride=2, padding=0, dilation=1, ceil_mode=False)\n","    (5): Conv2d(64, 128, kernel_size=(3, 3), stride=(1, 1), padding=(1, 1))\n","    (6): ReLU(inplace)\n","    (7): Conv2d(128, 128, kernel_size=(3, 3), stride=(1, 1), padding=(1, 1))\n","    (8): ReLU(inplace)\n","    (9): MaxPool2d(kernel_size=2, stride=2, padding=0, dilation=1, ceil_mode=False)\n","    (10): Conv2d(128, 256, kernel_size=(3, 3), stride=(1, 1), padding=(1, 1))\n","    (11): ReLU(inplace)\n","    (12): Conv2d(256, 256, kernel_size=(3, 3), stride=(1, 1), padding=(1, 1))\n","    (13): ReLU(inplace)\n","    (14): Conv2d(256, 256, kernel_size=(3, 3), stride=(1, 1), padding=(1, 1))\n","    (15): ReLU(inplace)\n","    (16): MaxPool2d(kernel_size=2, stride=2, padding=0, dilation=1, ceil_mode=False)\n","    (17): Conv2d(256, 512, kernel_size=(3, 3), stride=(1, 1), padding=(1, 1))\n","    (18): ReLU(inplace)\n","    (19): Conv2d(512, 512, kernel_size=(3, 3), stride=(1, 1), padding=(1, 1))\n","    (20): ReLU(inplace)\n","    (21): Conv2d(512, 512, kernel_size=(3, 3), stride=(1, 1), padding=(1, 1))\n","    (22): ReLU(inplace)\n","    (23): MaxPool2d(kernel_size=2, stride=2, padding=0, dilation=1, ceil_mode=False)\n","    (24): Conv2d(512, 512, kernel_size=(3, 3), stride=(1, 1), padding=(1, 1))\n","    (25): ReLU(inplace)\n","    (26): Conv2d(512, 512, kernel_size=(3, 3), stride=(1, 1), padding=(1, 1))\n","    (27): ReLU(inplace)\n","    (28): Conv2d(512, 512, kernel_size=(3, 3), stride=(1, 1), padding=(1, 1))\n","    (29): ReLU(inplace)\n","    (30): MaxPool2d(kernel_size=2, stride=2, padding=0, dilation=1, ceil_mode=False)\n","  )\n","  (avgpool): AdaptiveAvgPool2d(output_size=(7, 7))\n","  (classifier): Sequential(\n","    (0): Linear(in_features=25088, out_features=4096, bias=True)\n","    (1): ReLU(inplace)\n","    (2): Dropout(p=0.5)\n","    (3): Linear(in_features=4096, out_features=4096, bias=True)\n","    (4): ReLU(inplace)\n","    (5): Dropout(p=0.5)\n","    (6): Linear(in_features=4096, out_features=15, bias=True)\n","  )\n",")\n"],"name":"stdout"}]},{"cell_type":"code","metadata":{"id":"c8mcFojLuPYi","colab_type":"code","outputId":"f3b63aa9-bf45-450b-a5b5-10dcfe927527","executionInfo":{"status":"ok","timestamp":1557596537995,"user_tz":-540,"elapsed":7308,"user":{"displayName":"공준택","photoUrl":"https://lh3.googleusercontent.com/-Y4Y6dMDSHDM/AAAAAAAAAAI/AAAAAAAAAOY/huplKdcVMXI/s64/photo.jpg","userId":"16055552733708038072"}},"colab":{"base_uri":"https://localhost:8080/","height":866}},"source":["criterion = nn.CrossEntropyLoss()\n","optimizer = torch.optim.Adam(model.parameters(), lr = 0.00001)\n","model.to(device)"],"execution_count":19,"outputs":[{"output_type":"execute_result","data":{"text/plain":["VGG(\n","  (features): Sequential(\n","    (0): Conv2d(3, 64, kernel_size=(3, 3), stride=(1, 1), padding=(1, 1))\n","    (1): ReLU(inplace)\n","    (2): Conv2d(64, 64, kernel_size=(3, 3), stride=(1, 1), padding=(1, 1))\n","    (3): ReLU(inplace)\n","    (4): MaxPool2d(kernel_size=2, stride=2, padding=0, dilation=1, ceil_mode=False)\n","    (5): Conv2d(64, 128, kernel_size=(3, 3), stride=(1, 1), padding=(1, 1))\n","    (6): ReLU(inplace)\n","    (7): Conv2d(128, 128, kernel_size=(3, 3), stride=(1, 1), padding=(1, 1))\n","    (8): ReLU(inplace)\n","    (9): MaxPool2d(kernel_size=2, stride=2, padding=0, dilation=1, ceil_mode=False)\n","    (10): Conv2d(128, 256, kernel_size=(3, 3), stride=(1, 1), padding=(1, 1))\n","    (11): ReLU(inplace)\n","    (12): Conv2d(256, 256, kernel_size=(3, 3), stride=(1, 1), padding=(1, 1))\n","    (13): ReLU(inplace)\n","    (14): Conv2d(256, 256, kernel_size=(3, 3), stride=(1, 1), padding=(1, 1))\n","    (15): ReLU(inplace)\n","    (16): MaxPool2d(kernel_size=2, stride=2, padding=0, dilation=1, ceil_mode=False)\n","    (17): Conv2d(256, 512, kernel_size=(3, 3), stride=(1, 1), padding=(1, 1))\n","    (18): ReLU(inplace)\n","    (19): Conv2d(512, 512, kernel_size=(3, 3), stride=(1, 1), padding=(1, 1))\n","    (20): ReLU(inplace)\n","    (21): Conv2d(512, 512, kernel_size=(3, 3), stride=(1, 1), padding=(1, 1))\n","    (22): ReLU(inplace)\n","    (23): MaxPool2d(kernel_size=2, stride=2, padding=0, dilation=1, ceil_mode=False)\n","    (24): Conv2d(512, 512, kernel_size=(3, 3), stride=(1, 1), padding=(1, 1))\n","    (25): ReLU(inplace)\n","    (26): Conv2d(512, 512, kernel_size=(3, 3), stride=(1, 1), padding=(1, 1))\n","    (27): ReLU(inplace)\n","    (28): Conv2d(512, 512, kernel_size=(3, 3), stride=(1, 1), padding=(1, 1))\n","    (29): ReLU(inplace)\n","    (30): MaxPool2d(kernel_size=2, stride=2, padding=0, dilation=1, ceil_mode=False)\n","  )\n","  (avgpool): AdaptiveAvgPool2d(output_size=(7, 7))\n","  (classifier): Sequential(\n","    (0): Linear(in_features=25088, out_features=4096, bias=True)\n","    (1): ReLU(inplace)\n","    (2): Dropout(p=0.5)\n","    (3): Linear(in_features=4096, out_features=4096, bias=True)\n","    (4): ReLU(inplace)\n","    (5): Dropout(p=0.5)\n","    (6): Linear(in_features=4096, out_features=15, bias=True)\n","  )\n",")"]},"metadata":{"tags":[]},"execution_count":19}]},{"cell_type":"code","metadata":{"id":"mKi2QjYQuRS6","colab_type":"code","outputId":"d737f187-b959-4e65-8de6-3fb12023f096","colab":{"base_uri":"https://localhost:8080/","height":583},"executionInfo":{"status":"ok","timestamp":1557598422810,"user_tz":-540,"elapsed":1879940,"user":{"displayNa
…
